shape_assets/models/nignet_normalized_fit_to_naca0010.pth (torch, 4153 bytes, 6 tensors)

linear_layers.0.weight f4 [2, 2]
-0.5766256 0.61203635 -0.44743428 -0.14556246
00000000: bc9d 13bf 6aae 1c3f 1b16 e5be 530e 15be

linear_layers.0.bias f4 [2]
-0.39265567 0.021196827
00000000: 2a0a c9be f8a4 ad3c

linear_layers.1.weight f4 [2, 2]
0.07893886 0.2250218 0.803957 0.07576353
00000000: b2aa a13d 1d6c 663e 20d0 4d3f e929 9b3d

linear_layers.1.bias f4 [2]
-0.025294272 -0.4979657
00000000: ef35 cfbc 5cf5 febe

final_linear.weight f4 [2, 2]
-0.22367422 0.009438297 -0.020006796 0.01025855
00000000: db0a 65be 16a3 1a3c 4be5 a3bc 7a13 283c

final_linear.bias f4 [2]
-3.1229686e-07 -3.3161382e-06
00000000: c1a9 a7b4 d28a 5eb6
