src/shape_assets/models/nice_airfoil_normalized_fit_to_naca0010.pth (torch, 24815 bytes, 29 tensors)

coupling_net.blocks.0.0.weight f4 [10, 1]
00000000: 0054 f5bb 5e54 093f 16b3 52bf 8066 3cbf
00000010: f432 c5be ec4b 893e 404f a2bc cefa 4a3f
00000020: 70bf b5bd 4c7b 873e
-0.00748682 0.5364436 -0.82304513 -0.735939 -0.38515437 0.26815736 -0.01981318 0.7928895
-0.088744044 0.26461256

coupling_net.blocks.0.0.bias f4 [10]
00000000: acbb 9abe 7048 49be b891 74bf 528b 29bf
00000010: e80e d3be 00bb 173d 6069 ca3e 189b 193f
00000020: 8c8d 2dbf fcf4 debe
-0.30221307 -0.19656539 -0.9553485 -0.6622821 -0.4122231 0.03704357 0.3953352 0.6000228
-0.6779411 -0.43546283

coupling_net.blocks.0.1.weight f4 [10]
00000000: 0000 803f 0000 803f 0000 803f 0000 803f
00000010: 0000 803f 0000 803f 0000 803f 0000 803f
00000020: 0000 803f 0000 803f
1.0 1.0 1.0 1.0 1.0 1.0 1.0 1.0
1.0 1.0

coupling_net.blocks.0.1.bias f4 [10]
00000000: 0000 0000 0000 0000 0000 0000 0000 0000
00000010: 0000 0000 0000 0000 0000 0000 0000 0000
00000020: 0000 0000 0000 0000
0.0 0.0 0.0 0.0 0.0 0.0 0.0 0.0
0.0 0.0

coupling_net.blocks.0.1.running_mean f4 [10]
00000000: 0000 0000 0000 0000 0000 0000 0000 0000
00000010: 0000 0000 0000 0000 0000 0000 0000 0000
00000020: 0000 0000 0000 0000
0.0 0.0 0.0 0.0 0.0 0.0 0.0 0.0
0.0 0.0

coupling_net.blocks.0.1.running_var f4 [10]
00000000: 0000 803f 0000 803f 0000 803f 0000 803f
00000010: 0000 803f 0000 803f 0000 803f 0000 803f
00000020: 0000 803f 0000 803f
1.0 1.0 1.0 1.0 1.0 1.0 1.0 1.0
1.0 1.0

coupling_net.blocks.1.0.weight f4 [1, 10]
00000000: 5f3b eb3d 6c72 863e 8548 85bd f550 723e
00000010: 9ac6 50bd c60e 093d ba9a 923e a532 96be
00000020: f0da 4bbe 63f5 a3bd
0.114859335 0.26259172 -0.06507973 0.23663695 -0.05097065 0.033461355 0.28633672 -0.29335514
-0.19907737 -0.08005788

nice.log_scale f4 [2]
00000000: b277 bf36 dfae bfb6
5.706178e-06 -5.7126013e-06

nice.coupling_nets.0.blocks.0.0.weight f4 [10, 1]
00000000: 506f 33bd f042 263d f5c2 edbc ae4c e8bc
00000010: a2f1 d3bc 28d3 213c d077 7bbd 1cdd 2a3d
00000020: 7220 80bd 28af d03c
-0.043807328 0.04059118 -0.029023627 -0.028356876 -0.025872055 0.009877004 -0.06139356 0.041714773
-0.062561885 0.025474146

nice.coupling_nets.0.blocks.0.0.bias f4 [10]
00000000: c19e f331 13e1 a632 c25b 80b3 1ae8 3634
00000010: 3554 9e34 34d6 31b3 330a aeb4 0037 16b4
00000020: 49f0 a932 5d5a b333
7.090279e-09 1.9427295e-08 -5.977155e-08 1.7034509e-07 2.9491062e-07 -4.140584e-08 -3.2417447e-07 -1.3989848e-07
1.9783458e-08 8.351774e-08

nice.coupling_nets.0.blocks.0.1.weight f4 [10]
00000000: 3b9d 503f 7237 723f 9904 6f3f 78b0 803f
00000010: 426a 6c3f 10d4 5e3f d49b 7f3f 5b7b 823f
00000020: af74 763f b25f 783f
0.81489915 0.9461585 0.9336639 1.0053854 0.92349637 0.8704233 0.9984715 1.0193895
0.96271795 0.9702102

nice.coupling_nets.0.blocks.0.1.bias f4 [10]
00000000: 7118 b6bd 7eb2 10bd af3f 13bd 443d 183d
00000010: 9e4a 11bd 3ecc e1bc 18ec 103d 480a 263d
00000020: 3f33 19bd 30e1 323d
-0.088913806 -0.035326473 -0.035949405 0.037167802 -0.03547155 -0.02756321 0.035381407 0.04053715
-0.037402388 0.043671787

nice.coupling_nets.0.blocks.0.1.running_mean f4 [10]
00000000: 4b26 b4bc 4bf8 a63c 00c2 6ebc a959 69bc
00000010: f0d2 54bc 5b92 a23b f478 fcbc 0098 ab3c
00000020: 06a7 00bd 259b 513c
-0.021990916 0.020382067 -0.01457262 -0.014242568 -0.012989745 0.0049612946 -0.030819394 0.020946503
-0.031409286 0.012793337

nice.coupling_nets.0.blocks.0.1.running_var f4 [10]
00000000: cd8a 7d39 4bcc 5939 abab de38 a5b5 d438
00000010: 9bef b038 4e7b 4e37 18fc f839 0409 6639
00000020: 274e 013a 2b9d ab38
0.00024179668 0.00020770838 0.000106177606 0.00010142782 8.436964e-05 1.2307266e-05 0.0004749007 0.00021937868
0.0004932605 8.18319e-05

nice.coupling_nets.0.blocks.1.0.weight f4 [1, 10]
00000000: a0d9 8d3b 5cdb 5f3e c298 49bd f973 803e
00000010: 03f7 0fbd cd53 1cbc 8cf5 953e 847d abbe
00000020: 5f10 3bbe fae6 fabd
0.0043289214 0.21861023 -0.049217947 0.2508848 -0.035147678 -0.009541464 0.292889 -0.33494198
-0.18267964 -0.122510865

nice.coupling_nets.1.blocks.0.0.weight f4 [10, 1]
00000000: 2292 34bd b6d7 5b3d 3a6b edbc c420 eebc
00000010: 3f07 ebbc 6c04 d83c 15ce 4abc cb54 223d
00000020: 9a5a 0bbe 821a a13d
-0.044084676 0.053672515 -0.028981794 -0.029068358 -0.028689979 0.026369296 -0.012378235 0.039631646
-0.1360878 0.07866384

nice.coupling_nets.1.blocks.0.0.bias f4 [10]
00000000: 3889 5633 4fa2 e235 6fd1 3cb4 20e9 5333
00000010: 15df 4bb4 450a d234 9123 99b5 8c4d 83b5
00000020: 3817 21b3 07ef f8b4
4.9950557e-08 1.688555e-06 -1.7585056e-07 4.933929e-08 -1.8987005e-07 3.912302e-07 -1.140974e-06 -9.78283e-07
-3.750685e-08 -4.6367515e-07

nice.coupling_nets.1.blocks.0.1.weight f4 [10]
00000000: b134 243f 52fd 7d3f 7d08 433f e2ff 6a3f
00000010: 4ac0 303f 4369 463f 3f14 5d3f 5f65 703f
00000020: ac7c 663f 0732 5d3f
0.641429 0.9921466 0.7618483 0.91796696 0.6904341 0.77504367 0.8635902 0.9390468
0.90033984 0.8640446

nice.coupling_nets.1.blocks.0.1.bias f4 [10]
00000000: b99b edbc 2ffe 39bc 5ee3 59bc f358 01bc
00000010: 43a7 87bc 540e 3dbd 7375 45bc d68a 6bbc
00000020: ff24 1fbc b5c0 ffbc
-0.029004918 -0.011352106 -0.0132988375 -0.007894742 -0.016559249 -0.046156242 -0.012051928 -0.014376363
-0.00971341 -0.03121982

nice.coupling_nets.1.blocks.0.1.running_mean f4 [10]
00000000: c632 11ba 6666 313a d00e bfb9 c98e bfb9
00000010: 5431 bdb9 75e5 ad39 975e 24b9 9569 023a
00000020: 5a23 e0ba c290 813a
-0.0005538877 0.0006767273 -0.00036441395 -0.00036536742 -0.00036085641 0.0003316809 -0.00015675496 0.00049748394
-0.0017100379 0.000988506

nice.coupling_nets.1.blocks.0.1.running_var f4 [10]
00000000: 2547 3539 818d 8639 90cc 9c38 25ca 9d38
00000010: d6af 9938 52ba 8138 b5ae 6437 f4a5 1239
00000020: e9ef d73a 5775 103a
0.00017288009 0.000256639 7.4767624e-05 7.523996e-05 7.3283605e-05 6.185904e-05 1.3630536e-05 0.00013985467
0.0016474697 0.0005510649

nice.coupling_nets.1.blocks.1.0.weight f4 [1, 10]
00000000: 3f1b 103d 525a 8d3e 18b3 d3bd b9bd 423e
00000010: d049 b6bd c0d7 413d 29d4 733e 1ffc 8abe
00000020: de4e 6abe e9a6 79bd
0.035182234 0.2760797 -0.10336894 0.19017686 -0.08900797 0.047324896 0.23811401 -0.27145478
-0.22881648 -0.060950194

nice.coupling_nets.2.blocks.0.0.weight f4 [10, 1]
00000000: bde8 7e3d 9b75 463d 7021 3fbd d36d ebbc
00000010: 4b9a 37bd 28ff 063d e165 f6bc 1063 263d
00000020: 9065 9bbd b7cf 4d3c
0.062233675 0.048452 -0.046662748 -0.028738892 -0.04482488 0.03295818 -0.030077877 0.040621817
-0.07587731 0.01256173

nice.coupling_nets.2.blocks.0.0.bias f4 [10]
00000000: da77 2c33 18fa 3ab4 09c7 f832 f7b7 fa33
00000010: acca 5235 9a4a a6b3 dd99 8035 da7a 82b2
00000020: 968a afb5 9ce8 8c33
4.0155875e-08 -1.7413583e-07 2.896151e-08 1.1674995e-07 7.852602e-07 -7.743547e-08 9.581523e-07 -1.5189858e-08
-1.307885e-06 6.5615694e-08

nice.coupling_nets.2.blocks.0.1.weight f4 [10]
00000000: 8732 5d3f 6f07 873f c308 743f bae1 643f
00000010: 2b7f 6d3f e210 633f 9a64 5f3f 701c 643f
00000020: ea95 823f b955 503f
0.86405224 1.0549144 0.9532587 0.8940693 0.9277217 0.88697636 0.8726288 0.8910589
1.0202 0.813808

nice.coupling_nets.2.blocks.0.1.bias f4 [10]
00000000: c57a 6bbd f3dd 1d3d 775f b23c 445d 61bd
00000010: 28a3 723c 33ba 1a3c a709 9dbd 5212 5fbd
00000020: 7035 193d f132 6dbd
-0.05749013 0.038541745 0.021774037 -0.055020586 0.014809407 0.009443807 -0.07667857 -0.05446083
0.037404478 -0.05790991

nice.coupling_nets.2.blocks.0.1.running_mean f4 [10]
00000000: a4fc ff3c 7457 c73c e1f5 bfbc 2e81 6cbc
00000010: a768 b8bc ce99 873c 9b6c 77bc eb1e a73c
00000020: e41a 1cbd 7bcd ce3b
0.031248398 0.024333693 -0.023432674 -0.014435096 -0.02251084 0.016552832 -0.015101577 0.020400485
-0.038111582 0.0063111163

nice.coupling_nets.2.blocks.0.1.running_var f4 [10]
00000000: c5d7 ff39 8425 9b39 1dde 8f39 8262 da38
00000010: 10c8 8439 e194 0f39 150b ef38 3a16 5a39
00000020: 9a45 3e3a b9f8 a637
0.0004879815 0.00029591855 0.00027440573 0.000104133986 0.0002532606 0.00013693004 0.00011398472 0.0002079838
0.0007258296 1.9904563e-05

nice.coupling_nets.2.blocks.1.0.weight f4 [1, 10]
00000000: c090 6a3d 054f a43e 5677 19be 7ea0 153e
00000010: a914 0bbe 5f6e bf3d ac6a 303e 5f88 6bbe
00000020: 4cd6 90be 03c3 9abc
0.05726695 0.32091537 -0.1498693 0.14612004 -0.135821 0.093472235 0.17228192 -0.2300124
-0.28288496 -0.018891817
