src/shape_assets/models/nice_airfoil_normalized_fit_to_naca0010_small.pth (torch, 13485 bytes, 15 tensors)

coupling_net.blocks.0.0.weight f4 [5, 1]
-0.00748682 0.5364436 -0.82304513 -0.735939 -0.38515437
00000000: 0054 f5bb 5e54 093f 16b3 52bf 8066 3cbf
00000010: f432 c5be

coupling_net.blocks.0.0.bias f4 [5]
0.26815736 -0.01981318 0.7928895 -0.088744044 0.26461256
00000000: ec4b 893e 404f a2bc cefa 4a3f 70bf b5bd
00000010: 4c7b 873e

coupling_net.blocks.0.1.weight f4 [5]
1.0 1.0 1.0 1.0 1.0
00000000: 0000 803f 0000 803f 0000 803f 0000 803f
00000010: 0000 803f

coupling_net.blocks.0.1.bias f4 [5]
0.0 0.0 0.0 0.0 0.0
00000000: 0000 0000 0000 0000 0000 0000 0000 0000
00000010: 0000 0000

coupling_net.blocks.0.1.running_mean f4 [5]
0.0 0.0 0.0 0.0 0.0
00000000: 0000 0000 0000 0000 0000 0000 0000 0000
00000010: 0000 0000

coupling_net.blocks.0.1.running_var f4 [5]
1.0 1.0 1.0 1.0 1.0
00000000: 0000 803f 0000 803f 0000 803f 0000 803f
00000010: 0000 803f

coupling_net.blocks.1.0.weight f4 [1, 5]
-0.1351538 -0.08790671 -0.42724484 -0.29618156 -0.18435177
00000000: c265 0abe 6f08 b4bd d6bf dabe 1ca5 97be
00000010: b6c6 3cbe

nice.log_scale f4 [2]
2.7776304e-08 -2.99046e-08
00000000: bd98 ee32 7570 00b3

nice.coupling_nets.0.blocks.0.0.weight f4 [5, 1]
0.08025572 0.019397682 -0.026263498 -0.012778777 -0.035297915
00000000: 1c5d a43d e3e7 9e3c 8c26 d7bc 135e 51bc
00000010: 8c94 10bd

nice.coupling_nets.0.blocks.0.0.bias f4 [5]
2.8447953e-08 5.0332837e-08 5.9775965e-07 2.7232558e-08 -1.4197308e-07
00000000: b65d f432 8a2d 5833 bb75 2035 07ed e932
00000010: 4371 18b4

nice.coupling_nets.0.blocks.0.1.weight f4 [5]
0.5821728 0.66086483 0.6684696 0.6692237 0.65793556
00000000: 4709 153f 702e 293f d320 2b3f 3f52 2b3f
00000010: 776e 283f

nice.coupling_nets.0.blocks.0.1.bias f4 [5]
0.07789284 0.13414067 -0.1623427 -0.16038516 -0.16770096
00000000: 4886 9f3d 2c5c 093e 2a3d 26be 023c 24be
00000010: cdb9 2bbe

nice.coupling_nets.0.blocks.0.1.running_mean f4 [5]
0.040288735 0.009770064 -0.013224398 -0.0064559667 -0.01773237
00000000: cd05 253d 9e12 203c 25ab 58bc 938c d3bb
00000010: 7a43 91bc

nice.coupling_nets.0.blocks.0.1.running_var f4 [5]
0.00081157836 4.7726997e-05 8.744654e-05 2.0840449e-05 0.00015721338
00000000: 1ac0 543a 792e 4838 8163 b738 86d2 ae37
00000010: a5d9 2439

nice.coupling_nets.0.blocks.1.0.weight f4 [1, 5]
0.019100422 -0.01810606 -0.12117602 0.0027602273 0.11763237
00000000: 7d78 9c3c 2953 94bc 222b f8bd eee4 343b
00000010: 3de9 f03d
