src/shape_assets/models/nignet_airfoil_normalized_fit_to_naca0010.pth (torch, 4107 bytes, 7 tensors)

linear_layers.0.weight f4 [2, 2]
000000 ee e0 ef 3c e2 8f 33 3d 98 97 2a be ea fe 39 bf
       0.02928206 0.04383839 -0.16659391 -0.72654593

linear_layers.0.bias f4 [2]
000000 c8 4a ec bf f0 3b 14 3e
       -1.8460321 0.1447599

linear_layers.1.weight f4 [2, 2]
000000 0a c6 3a 3f b7 08 2c 3f 0c 34 6f 3f 09 9d ad 3c
       0.72958434 0.672008 0.9343879 0.021193044

linear_layers.1.bias f4 [2]
000000 14 59 82 3e 39 88 58 bf
       0.25458586 -0.8458286

linear_layers.2.weight f4 [2, 2]
000000 80 45 47 be e7 37 7c bf 5f 29 03 be 63 58 5f 3e
       -0.19460106 -0.985228 -0.1280875 0.2181106

linear_layers.2.bias f4 [2]
000000 3d 59 2e 3e d1 c8 0d bf
       0.17026229 -0.55384547

final_linear.weight f4 [2, 2]
000000 68 72 f9 be 59 b3 d5 bc 80 fc 21 3e a6 98 e6 3e
       -0.48720098 -0.026086496 0.15818977 0.45038337
