src/shape_assets/models/nignet_normalized_fit_to_naca0010.pth (torch, 3939 bytes, 7 tensors)

linear_layers.0.weight f4 [2, 2]
00000000: bf1f 0bbf 7350 8e3b f819 5d3f ff2b 79bf
-0.54345316 0.0043430864 0.8636775 -0.9733276

linear_layers.0.bias f4 [2]
00000000: 46a3 57bf cde6 8ebf
-0.8423351 -1.1164185

linear_layers.1.weight f4 [2, 2]
00000000: 7fb0 1ebf ce4c 913f 7e74 55bf 5b74 d439
-0.6198806 1.1351564 -0.8338088 0.00040522483

linear_layers.1.bias f4 [2]
00000000: 279d 23bf afd3 0ebf
-0.6391167 -0.55791754

linear_layers.2.weight f4 [2, 2]
00000000: 13aa 8dbd f365 b7bf cd15 2bbe 053c 19bf
-0.06917205 -1.4327987 -0.16707535 -0.5985721

linear_layers.2.bias f4 [2]
00000000: 2c03 0a3f c05c c03e
0.5391109 0.37570763

final_linear.weight f4 [2, 2]
00000000: e1ee 10bf 070e 863e 2a92 c3bd e879 033e
-0.566145 0.26182577 -0.09549363 0.12839472
